checkpoints/ml-1m-base.pth (torch, 858018 bytes, 28 tensors)

item_emb.weight f4 [3417, 50]
0.0 0.0 0.0 0.0 0.0 0.0 0.0 0.0
0.0 0.0 0.0 0.0 0.0 0.0 0.0 0.0
0.0 0.0 0.0 0.0 0.0 0.0 0.0 0.0
0.0 0.0 0.0 0.0 0.0 0.0 0.0 0.0
0.0 0.0 0.0 0.0 0.0 0.0 0.0 0.0
0.0 0.0 0.0 0.0 0.0 0.0 0.0 0.0
0.0 0.0 -0.003543284 -0.01879793 -0.07190596 -0.037721366 -0.09694427 0.15395632
-0.1237414 -0.21908264 -0.11753021 -0.09205879 0.038724195 -0.0006172535 -0.075492084 -0.22619314
0.23072158 0.014972302 0.04410182 -0.37724367 -0.02757537 0.29120937 0.013778464 0.16413906
-0.19051698 0.13608688 0.019576197 0.009273828 0.07108201 0.24071258 0.4680266 -0.14333172
0.044744406 0.028087126 0.1252021 -0.044466194 -0.22330739 0.35709774 0.15677354 0.08253332
-0.1213179 -0.082208686 -0.11470189 -0.13746321 0.3414926 0.07729227 0.08155072 -0.12380928
0.077871755 0.1341867 -0.1234042 0.102042206 -0.06805303 -0.32548857 -0.212008 0.1277892
0.10318436 -0.09779903 -0.3533516 -0.27047908 0.10908093 0.14235972 0.29037976 -0.048712324
0.0501988 -0.11260483 -0.023642045 0.30653208 -0.24161261 -0.5473337 0.011690593 0.12762088
0.32807794 -0.019025316 -0.24155681 0.08296348 -0.10633799 -0.024623878 -0.09192213 0.15839212
-0.32928526 0.25775674 -0.042121615 0.27114755 0.2768263 0.30078405 0.15622744 0.17777017
0.25710413 -0.04705524 0.014643233 -0.092739455 -0.11402881 0.15329444 -0.07443294 0.03805854
-0.17926957 0.20643637 -0.11834272 -0.012153465 -0.073598996 -0.029169535 -0.29970253 0.055306293
0.14410828 0.17229676 0.15685613 0.1327233 -0.105814576 0.2712876 0.15533668 0.061807014
-0.26509437 -0.18736148 -0.07372824 0.13867795 0.053280283 0.12793314 -0.18825445 -0.72383374
0.1945524 0.0027836773 -0.16655186 0.0025678345 -0.11057775 -0.21554622 0.12163717 0.044943042
0.10694286 0.17994522 0.0115093775 0.26132974 -0.13639754 0.23129044 0.4733714 -0.052342348
0.08553471 0.08921651 -0.030083379 -0.03657719 -0.0616004 0.0036491563 -0.38396433 -0.06363656
-0.03579856 -0.10729589 -0.10709944 -0.039665226 0.12961534 -0.14863184 0.033669695 0.06267482
0.08676164 -0.0075378404 0.045724843 0.022292325 0.11803241 0.048272952 -0.26285005 0.06992917
0.0033230577 0.03080368 0.08402027 -0.2774823 0.19495864 -0.2357685 0.098594226 -0.12062715
0.082579665 -0.37546954 -0.04935026 0.19333832 -0.030646587 0.30194247 -0.19514968 0.28198934
-0.035388406 0.16877362 -0.074662104 0.20413311 0.1647022 0.06328226 0.058434628 -0.065861724
0.10230397 -0.12162727 -0.03904052 0.516809 0.10701149 0.009758894 -0.12544568 0.01303184
-0.18265764 -0.065087035 0.11700611 0.14022541 0.019180095 -0.15442108 0.13418026 0.06475767
0.011338005 0.17040673 -0.070605986 0.13917394 0.17380776 0.070639476 -0.031644646 -0.0060353344
00000000: 0000 0000 0000 0000 0000 0000 0000 0000
00000010: 0000 0000 0000 0000 0000 0000 0000 0000
00000020: 0000 0000 0000 0000 0000 0000 0000 0000
00000030: 0000 0000 0000 0000 0000 0000 0000 0000
00000040: 0000 0000 0000 0000 0000 0000 0000 0000
00000050: 0000 0000 0000 0000 0000 0000 0000 0000
00000060: 0000 0000 0000 0000 0000 0000 0000 0000
00000070: 0000 0000 0000 0000 0000 0000 0000 0000
00000080: 0000 0000 0000 0000 0000 0000 0000 0000
00000090: 0000 0000 0000 0000 0000 0000 0000 0000
000000a0: 0000 0000 0000 0000 0000 0000 0000 0000
000000b0: 0000 0000 0000 0000 0000 0000 0000 0000
000000c0: 0000 0000 0000 0000 7136 68bb 1efe 99bc
000000d0: 6f43 93bd b881 1abd b88a c6bd baa6 1d3e
000000e0: 226c fdbd 3357 60be aeb3 f0bd 5289 bcbd
000000f0: 439d 1e3d 2ecf 21ba 989b 9abd 2d9f 67be
00000100: 4742 6c3e 634e 753c 1ca4 343d 1526 c1be
00000110: bee5 e1bc 6519 953e 11bf 613c 1214 283e
00000120: e216 43be 5c5a 0b3e 435e a03c 41f1 173c
00000130: 7293 913d 5c7d 763e 2fa1 ef3e 8dc5 12be
00000140: e945 373d f916 e63c fb34 003e 2f22 36bd
00000150: b1aa 64be 84d5 b63e 3e89 203e 3b07 a93d
00000160: 8575 f8bd 075d a8bd d3e8 eabd 28c3 0cbe
00000170: 1ed8 ae3e 694b 9e3d 1004 a73d b88f fdbd
00000180: 3a7b 9f3d 3d68 093e 57bb fcbd 81fb d03d
00000190: 635f 8bbd 70a6 a6be a018 59be 2cdb 023e
000001a0: 5252 d33d dc4a c8bd 80ea b4be 3c7c 8abe
000001b0: d365 df3d bfc6 113e a8ac 943e 9386 47bd
000001c0: 429d 4d3d 5c9d e6bd f6ac c1bc c6f1 9c3e
000001d0: 4c69 77be 101e 0cbf e789 3f3c 0caf 023e
000001e0: d5f9 a73e fbda 9bbc ab5a 77be c2e8 a93d
000001f0: bbc7 d9bd 04b8 c9bc ab41 bcbd 8b31 223e
00000200: 1498 a8be b1f8 833e b787 2cbd dad3 8a3e
00000210: 2dbc 8d3e 5e00 9a3e 16fa 1f3e 6209 363e
00000220: 27a3 833e ffbc 40bd 2cea 6f3c 2fee bdbd
00000230: f087 e9bd 38f9 1c3e 4c70 98bd 46e3 1b3d
00000240: 7192 37be 0e64 533e ab5d f2bd 541f 47bc
00000250: 12bb 96bd f3f4 eebc 9c72 99be da88 623d
00000260: 1f91 133e 906e 303e e59e 203e 9ee8 073e
00000270: 50b5 d8bd 35e6 8a3e 9410 1f3e 5a29 7d3d
00000280: 73ba 87be b0db 3fbe d5fe 96bd 9801 0e3e
00000290: 6d3c 5a3d e800 033e c6c5 40be 2b4d 39bf
000002a0: bf38 473e 5b6e 363b 928c 2abe 1d49 283b
000002b0: 9676 e2bd 26b8 5cbe e91c f93d 3216 383d
000002c0: dc04 db3d 8f43 383e d491 3c3c 03cd 853e
000002d0: ccab 0bbe 67d7 6c3e bc5d f23e ee64 56bd
000002e0: d22c af3d 25b7 b63d 6b71 f6bc f7d1 15bd
000002f0: b350 7cbd af26 6f3b f996 c4be e353 82bd
00000300: 83a1 12bd f3bd dbbd f456 dbbd 0178 22bd
00000310: e2b9 043e f232 18be 3ce9 093d a85b 803d
00000320: 16b0 b13d fdff f6bb f949 3b3d 659e b63c
00000330: faba f13d dcb9 453d 4894 86be 0637 8f3d
00000340: a8c7 593b 0058 fc3c d212 ac3d 2912 8ebe
00000350: 3da3 473e 4c6d 71be c5eb c93d 5e0b f7bd
00000360: 871f a93d 8b3d c0be 8023 4abd 7bfa 453e
00000370: 8d0e fbbc 3498 9a3e 51d5 47be e860 903e
00000380: 6ff3 10bd fed2 2c3e 72e8 98bd 4508 513e
00000390: b2a7 283e 219a 813d 2659 6f3d 83e2 86bd
000003a0: be84 d13d b817 f9bd f4e8 1fbd 984d 043f
000003b0: d728 db3d c5e3 1f3c d574 00be 8083 553c
000003c0: 9b0a 3bbe 5a4c 85bd e6a0 ef3d 4097 0f3e
000003d0: 931f 9d3c 8f20 1ebe 8d66 093e ab9f 843d
000003e0: 0ac3 393c 1a7f 2e3e df99 90bd 9d83 0e3e
000003f0: a9fa 313e 6eab 903d d19d 01bd 0ec4 c5bb

pos_emb.weight f4 [201, 50]
0.0 0.0 0.0 0.0 0.0 0.0 0.0 0.0
0.0 0.0 0.0 0.0 0.0 0.0 0.0 0.0
0.0 0.0 0.0 0.0 0.0 0.0 0.0 0.0
0.0 0.0 0.0 0.0 0.0 0.0 0.0 0.0
0.0 0.0 0.0 0.0 0.0 0.0 0.0 0.0
0.0 0.0 0.0 0.0 0.0 0.0 0.0 0.0
0.0 0.0 0.6770359 -0.96561176 -0.07024511 0.0028609214 -0.715642 1.0554804
0.7081746 -0.5498992 -1.1866109 0.00094735937 0.23863728 -1.7848418 -0.76340747 -1.9458988
0.48021632 -1.161046 -1.295873 1.261594 0.50111806 1.3016218 0.6269147 -0.42111772
0.50852054 -0.47265863 0.58559453 0.3101666 0.08840144 -1.6004483 -1.7129359 -0.60569227
-0.7648091 0.5946922 -0.0533854 -2.0155008 0.35606602 -0.23399977 1.2153299 0.0027385084
-0.48062244 -0.25317922 1.7286541 -1.185718 0.12624753 -1.4929191 -2.2924547 0.8338931
-0.4711603 0.029783476 -0.45846665 -1.4151963 0.45857087 -0.16724508 -0.0062243226 0.46164554
-0.34889826 0.72655547 1.2293221 -0.18035254 -1.1001542 -0.33635968 0.22409628 -0.5365118
-0.2917095 -1.3780293 0.19309102 -0.7683469 -0.8821679 1.7935643 0.1470113 0.7696921
0.29379943 -0.33834466 0.61236554 0.59497225 0.83616316 0.5450856 0.15421139 -1.5043565
-1.2944221 -0.19889751 -0.33682135 0.3353919 -0.6921636 -1.0243088 0.6661374 -0.58452797
0.6364528 -0.01067543 -0.29061309 -0.42895475 0.68176085 -0.89223 0.32540488 -1.2775546
-1.1037904 0.091780014 0.0018899611 0.104250625 -0.35736653 -1.273339 0.23868905 -0.50252956
0.19038787 0.68473107 -0.5011351 0.1662559 1.2283356 -0.27577543 -0.5497661 -0.8196227
0.00013850519 -0.59802705 -0.04467242 -1.130655 -0.10975468 -0.5436839 -0.6320594 1.6250228
0.12521805 0.78159463 0.16430968 -0.33260047 0.18425933 0.7281333 0.54470783 0.5258609
-0.36955097 -1.5047557 -1.1135322 -0.55419755 -0.31249806 0.29935834 -0.4415745 -1.2749723
0.76365244 -0.46370348 0.09846552 -0.20927311 0.20089163 -0.2239026 0.88447106 -0.87021214
0.38328707 -1.0531856 -0.53817743 -0.019365586 0.3777769 -0.15610091 0.27344313 -1.0868089
-0.13255002 -0.0017388681 0.13269988 1.1360327 0.07401352 0.4086312 1.3666748 -0.18838073
-0.54626733 -0.2667142 0.38355285 -0.4835074 0.27482483 -0.94809645 -0.16732496 -0.5260584
0.0010136685 1.7140344 0.05266678 0.40592742 0.061594855 -0.513163 -0.12656166 0.87430865
0.26211265 0.6762889 -0.19021656 -1.6185157 -1.0131851 -0.4864561 -0.73041636 0.03305724
-0.52085245 -0.7376445 1.0729582 -0.55724144 -0.09809446 -0.39418936 -0.07530617 -0.22003987
0.82605606 -0.7263853 0.28890657 -0.9391815 -0.20277168 0.039115436 -0.04523694 -0.31066754
0.07566873 -1.1283536 -0.3118995 -0.72057605 0.024987372 1.0369917 0.068985574 0.41886052
00000000: 0000 0000 0000 0000 0000 0000 0000 0000
00000010: 0000 0000 0000 0000 0000 0000 0000 0000
00000020: 0000 0000 0000 0000 0000 0000 0000 0000
00000030: 0000 0000 0000 0000 0000 0000 0000 0000
00000040: 0000 0000 0000 0000 0000 0000 0000 0000
00000050: 0000 0000 0000 0000 0000 0000 0000 0000
00000060: 0000 0000 0000 0000 0000 0000 0000 0000
00000070: 0000 0000 0000 0000 0000 0000 0000 0000
00000080: 0000 0000 0000 0000 0000 0000 0000 0000
00000090: 0000 0000 0000 0000 0000 0000 0000 0000
000000a0: 0000 0000 0000 0000 0000 0000 0000 0000
000000b0: 0000 0000 0000 0000 0000 0000 0000 0000
000000c0: 0000 0000 0000 0000 3a52 2d3f 5532 77bf
000000d0: abdc 8fbd 4c7e 3b3b 5034 37bf fb19 873f
000000e0: ee4a 353f 32c6 0cbf dee2 97bf 3658 783a
000000f0: 555d 743e b275 e4bf ac6e 43bf 3613 f9bf
00000100: eade f53e 289d 94bf 2bdf a5bf ea7b a13f
00000110: 4649 003f 8b9b a63f 7b7d 203f be9c d7be
00000120: 672e 023f 5000 f2be 86e9 153f 28ce 9e3e
00000130: d00b b53d 7ddb ccbf 7c41 dbbf a60e 1bbf
00000140: 87ca 43bf bf3d 183f a6aa 5abd f7fd 00c0
00000150: 494e b63e a39d 6fbe ee8f 9b3f 8c78 333b
00000160: 2514 f6be b5a0 81be 8a44 dd3f 9cc5 97bf
00000170: 0847 013e f917 bfbf 94b7 12c0 057a 553f
00000180: ec3b f1be 7afc f33c 24bc eabe 2725 b5bf
00000190: cdc9 ea3e 4b42 2bbe 67f5 cbbb ce5c ec3e
000001a0: cba2 b2be 8aff 393f 6d5a 9d3f 56ae 38be
000001b0: dad1 8cbf 5637 acbe 7f79 653e d658 09bf
000001c0: f35a 95be 4463 b0bf a7b9 453e 62b2 44bf
000001d0: c1d5 61bf 8493 e53f 218a 163e 8b0a 453f
000001e0: e16c 963e 833b adbe fdc3 1c3f 1a50 183f
000001f0: ca0e 563f bb8a 0b3f 97e9 1d3e c18e c0bf
00000200: a0af a5bf caab 4bbe d973 acbe 7db8 ab3e
00000210: a231 31bf 8d1c 83bf fb87 2a3f a0a3 15bf
00000220: 92ee 223f 00e8 2ebc 3dcb 94be f59f dbbe
00000230: e187 2e3f 2f69 64bf 789b a63e e986 a3bf
00000240: 0149 8dbf 29f7 bb3d 92b8 f73a 5a81 d53d
00000250: bff8 b6be c6fc a2bf e76a 743e c7a5 00bf
00000260: 0af5 423e 894a 2f3f 644a 00bf fd3e 2a3e
00000270: 1a3a 9d3f 7032 8dbe 79bd 0cbf cbd2 51bf
00000280: b43b 1139 4d18 19bf 6dfa 36bd 4eb9 90bf
00000290: 10c7 e0bd de2e 0bbf a5ce 21bf bf00 d03f
000002a0: 2939 003e 9616 483f cc40 283e 9c4a aabe
000002b0: 7aae 3c3e f266 3a3f f971 0b3f d29e 063f
000002c0: c935 bdbe d69b c0bf 3988 8ebf e4df 0dbf
000002d0: bfff 9fbe 7f45 993e 0e16 e2be 4b32 a3bf
000002e0: ba7e 433f 8b6a edbe 4aa8 c93d b14b 56be
000002f0: 89b6 4d3e b946 65be b26c 623f 39c6 5ebf
00000300: 343e c43e c9ce 86bf ffc5 09bf 94a4 9ebc
00000310: f96b c13e ebd8 1fbe bd00 8c3e 8e1c 8bbf
00000320: 31bb 07be bbea e3ba 7ae2 073e 8569 913f
00000330: 6694 973d 1c38 d13e 33ef ae3f e1e6 40be
00000340: 2dd8 0bbf c38e 88be 0a61 c43e 488e f7be
00000350: d7b5 8c3e 73b6 72bf 3c57 2bbe c3ab 06bf
00000360: 12dd 843a 7b65 db3f 1fb9 573d b8d5 cf3e
00000370: e34a 7c3d a65e 03bf 6199 01be b1d2 5f3f
00000380: a133 863e 4521 2d3f 21c8 42be 862b cfbf
00000390: 0db0 81bf c610 f9be 91fc 3abf 0767 073d
000003a0: 9656 05bf 45d6 3cbf b256 893f 60a7 0ebf
000003b0: c0e5 c8bd 30d3 c9be 1f3a 9abd 2252 61be
000003c0: 6978 533f 63f4 39bf 90eb 933e 336e 70bf
000003d0: 61a3 4fbe 8237 203d 5f4a 39bd d10f 9fbe
000003e0: 35f8 9a3d e46d 90bf 4bb1 9fbe ac77 38bf
000003f0: 51b2 cc3c 25bc 843f 4f48 8d3d e374 d63e

attention_layernorms.0.weight f4 [50]
1.1172887 0.8924159 0.9997175 0.11962558 0.6817487 0.956907 0.47501883 1.2534677
0.8969472 1.1212623 0.93262064 1.1142904 1.2841731 0.95834 1.0722004 0.87515384
1.295316 0.33332554 1.2716432 1.1858041 0.9246023 1.0469129 1.1271383 0.73369944
1.033047 1.0817491 1.2676473 0.12467793 0.97545695 0.89009136 1.3137604 0.7526066
1.0675106 1.1361104 1.2139367 0.6117487 1.2470272 1.0263017 1.0468086 1.1022866
1.134055 0.99081653 1.1061656 0.929774 1.1917274 1.1578021 1.1708329 1.1607983
1.1413099 0.43331864
00000000: 5103 8f3f 5e75 643f 7ced 7f3f 42fe f43d
00000010: 1587 2e3f dbf7 743f ab35 f33e a171 a03f
00000020: 559e 653f 8685 8f3f 3ac0 6e3f 11a1 8e3f
00000030: c95f a43f c555 753f dd3d 893f 150a 603f
00000040: eacc a53f a5a9 aa3e 34c5 a23f 6ec8 973f
00000050: bdb2 6c3f 3e01 863f 1146 903f bad3 3b3f
00000060: e23a 843f c176 8a3f 4442 a23f 2457 ff3d
00000070: 8cb7 793f 07dd 633f 4d29 a83f d3aa 403f
00000080: 30a4 883f 116c 913f 4762 9b3f 909b 1c3f
00000090: 969e 9f3f db5d 833f d3fd 853f ba17 8d3f
000000a0: b728 913f 27a6 7d3f d696 8d3f ab05 6e3f
000000b0: 868a 983f dc32 943f dadd 953f 0a95 943f
000000c0: 7116 923f f1db dd3e

attention_layernorms.0.bias f4 [50]
0.0009951895 -0.2134935 -0.07241206 -0.15942739 -0.46863744 0.24777971 0.51812756 0.017332254
-0.37283507 0.18858261 0.20455492 -0.10530114 -0.12990333 -0.012059291 0.1116063 -0.15991603
-0.23147605 -0.8010721 0.65555155 0.23279825 0.240471 0.38011506 -0.0068808906 0.04844915
0.034346323 0.13328934 -0.015785981 -0.11510786 0.07257179 0.055189226 0.0013456508 -0.02316335
-0.08020266 -0.1909317 0.090242185 0.20491032 0.34615675 0.19387893 -0.07762921 0.12769485
0.074464105 -0.001852257 0.10587495 -0.35777658 -0.0019625735 0.26318082 -0.16711749 0.01282091
-0.41923618 -0.2509232
00000000: 0571 823a 0a9e 5abe c64c 94bd ef40 23be
00000010: 3ff1 efbe f7b9 7d3e 02a4 043f 5ffc 8d3c
00000020: 3de4 bebe cd1b 413e d876 513e 20a8 d7bd
00000030: 6105 05be 5594 45bc d891 e43d 07c1 23be
00000040: 0f08 6dbe 1013 4dbf 3ad2 273f aa62 6e3e
00000050: 083e 763e 719e c23e 1879 e1bb 9e72 463d
00000060: bbae 0c3d 007d 083e 9a51 81bc abbd ebbd
00000070: 85a0 943d 190e 623d 8c60 b03a 11c1 bdbc
00000080: 4b41 a4bd 9983 43be e5d0 b83d 03d4 513e
00000090: 753b b13e 3388 463e 10fc 9ebd 70c2 023e
000000a0: a380 983d 6ec7 f2ba f7d4 d83d 7e2e b7be
000000b0: 859e 00bb a3bf 863e d920 2bbe cb0e 523c
000000c0: 20a6 d6be 0179 80be

attention_layernorms.1.weight f4 [50]
0.7292532 0.72780514 0.849495 0.4678998 0.5850312 1.0483913 0.29070303 0.8522285
0.8339979 0.6666883 0.75961816 0.8190633 0.8759809 0.71397203 0.9868812 0.7586334
0.7122112 0.191654 0.64624137 0.7360226 0.69635534 0.6249478 0.53696555 0.5219917
0.84058934 0.67305166 1.2025537 0.21577026 0.42751974 0.54147464 0.9832401 0.4766641
0.7318277 0.9193635 0.7731804 0.28804255 0.8230807 0.7767775 0.84956205 0.5839037
0.73880684 0.76841205 1.124377 0.68255126 0.52632195 0.9759131 0.9950279 0.5295417
1.0126692 0.5263582
00000000: 56b0 3a3f 7051 3a3f 8178 593f 9090 ef3e
00000010: 9bc4 153f b031 863f 07d7 943e a62b 5a3f
00000020: e380 553f 16ac 2a3f 5676 423f 22ae 513f
00000030: 4940 603f dfc6 363f 3fa4 7c3f cc35 423f
00000040: 7953 363f f240 443e 1370 253f fa6b 3c3f
00000050: 5844 323f 94fc 1f3f 9376 093f 40a1 053f
00000060: dd30 573f 1d4d 2c3f 48ed 993f e1f2 5c3e
00000070: dee3 da3e 159e 0a3f a0b5 7b3f 510d f43e
00000080: 0f59 3b3f 685b 6b3f 27ef 453f 507a 933e
00000090: 6bb5 523f e4da 463f e67c 593f b67a 153f
000000a0: 7222 3d3f a7b6 443f 96eb 8f3f aebb 2e3f
000000b0: 09bd 063f 71d5 793f 26ba 7e3f 0b90 073f
000000c0: 259f 813f 69bf 063f

attention_layernorms.1.bias f4 [50]
-0.04595903 -0.13141203 0.06923964 0.15324955 0.20184514 -0.10101978 -0.5528019 -0.050249588
0.29271933 0.076729 -0.102856524 0.2806695 -0.21768475 0.10319963 0.08647357 -0.031511646
-0.1323177 -0.621667 -0.072884224 -0.01279869 -0.10150258 -0.03646517 0.003286305 -0.1887265
-0.07609207 -0.4148636 0.12858553 0.054781396 0.21614471 0.032612234 0.19329548 0.03422666
0.26606244 0.20689678 -0.2188285 0.005542344 -0.11605496 -0.17122555 -0.09072979 -0.045188826
0.03523414 0.1984594 -0.25074014 0.3715301 -0.037183154 0.102406025 -0.047959074 0.11513392
0.0009116407 0.13075675
00000000: 893f 3cbd e090 06be 83cd 8d3d 73ed 1c3e
00000010: 7eb0 4e3e 75e3 cebd 6d84 0dbf 83d2 4dbd
00000020: 4fdf 953e 1824 9d3d 71a6 d2bd eab3 8f3e
00000030: c0e8 5ebe 545a d33d 0e19 b13d 5b12 01bd
00000040: 4b7e 07be 9225 1fbf 5344 95bd 99b1 51bc
00000050: 96e0 cfbd 815c 15bd 0c5f 573b 8541 41be
00000060: 29d6 9bbd 0069 d4be edab 033e 7562 603d
00000070: 0a55 5d3e 6894 053d 40ef 453e 4131 0c3d
00000080: 5639 883e c0dc 533e 9414 60be 8d9c b53b
00000090: 39ae edbd c055 2fbe 8ad0 b9bd eb17 39bd
000000a0: ac51 103d f138 4b3e 0361 80be 3139 be3e
000000b0: 5d4d 18bd 40ba d13d bc70 44bd 55cb eb3d
000000c0: 2cfb 6e3a 19e5 053e

attention_layers.0.in_proj_weight f4 [150, 50]
0.03698055 -0.05993892 0.030802863 -0.31136248 0.01627004 -0.04781032 -0.09715091 -0.09077841
-0.030218175 0.07437731 0.013857381 0.06721743 -0.042931724 0.0059919828 -0.061537024 0.142529
0.039503135 0.19528092 0.087030195 0.10625778 -0.0766081 -0.010429182 -0.03016812 0.013117691
-0.027646238 -0.050486322 0.05386667 0.04905709 0.017738607 0.14044958 0.10672177 -0.015322713
0.11031511 0.04296395 0.04709631 0.111943536 -0.021765612 0.015431117 0.068645455 -0.039838437
0.054342028 -0.08078481 0.06832587 -0.03315162 -0.014738405 0.005623524 -0.038413387 -0.11137334
0.08450773 0.0050267014 -0.083809085 0.026530169 0.04153919 -0.050420705 0.04320989 -0.017860563
0.35319474 -0.012578402 -0.056444958 0.009297549 -0.054366536 0.03566375 0.01197276 -0.02360785
0.043040033 -0.02896958 -0.012220332 0.17033522 -0.045585535 -0.07309887 0.0053887125 -0.10053887
-0.02678372 0.0074103083 0.00014086583 0.06352762 -0.040650032 -0.17719568 0.061481968 -0.0736399
0.008744121 -0.104600035 0.021415919 0.016883435 0.04285364 0.03597923 -0.08727481 0.021525307
-0.03094781 -0.03322923 -0.01536721 0.025892384 -0.013520337 -0.065737285 0.0110048605 -0.008884976
0.010254301 0.0114653725 -0.05623156 0.15502612 -0.049983818 -0.0075278655 -0.004337666 0.3333331
-0.06969303 -0.022149328 0.109889895 -0.042000018 -0.017943306 -0.047160964 -0.065674745 -0.038532462
-0.020167192 -0.0063948142 -0.04678083 5.4637523e-05 -0.026241835 -0.09297467 -0.0074875057 -0.022086784
0.0067970436 -0.0072879987 -0.037075292 -0.0118595455 -0.042217165 0.011723112 0.016575936 0.0062502823
0.018356051 0.0003208719 0.030499298 -0.009718306 -0.04327224 0.011981726 0.022194562 0.024179226
-0.03355724 0.03523822 0.016444083 -0.030171387 -0.018644033 -0.022289561 0.0020903766 0.0006272121
-0.01593697 -0.0136052845 -0.02282625 -0.0013392287 -0.009053664 0.0056008054 -0.035875127 -0.06137854
-0.0002964107 0.69478774 0.086001344 0.015516145 0.1198795 -0.0862129 -0.02700482 0.02770532
-0.06638533 -0.032021392 -0.06076653 -0.10173022 -0.050027214 -0.07759925 -0.0037148844 0.039748725
0.08120768 0.040541694 0.0066130306 -0.019983437 0.04182988 0.045874976 0.04355308 0.011553727
-0.033955276 -0.47741398 -0.004939054 -0.029666446 -0.05762596 0.025508344 0.03322232 -0.02921473
-0.03480717 -0.041353673 0.09682754 -0.07295971 -0.06370646 0.019953135 -0.008446161 -0.10597
-0.017688535 0.04218515 -0.010706108 0.061795987 -0.072857395 0.017560787 -0.05819488 0.02425169
0.0036627608 -0.013504445 -0.0046151625 -0.04065124 -0.014828843 -0.007859221 -0.00727898 0.002396738
-0.020088008 -0.0033303811 -0.0062706736 -0.0034379682 -9.740613e-05 -0.0022914028 -0.010871453 -0.0017072886
-0.007337334 -0.058485657 -0.0021347152 -0.0064113736 -0.014974178 -0.002865539 -0.014171843 0.0036121933
-0.004939192 -0.0093763415 -0.0011394756 -0.01634548 -0.00048196132 -0.02507049 -0.004318052 -0.008995088
-0.0034231963 -0.0054570567 -0.0033200542 -0.015702747 0.001499831 -0.001803611 -0.0007895661 0.00072892645
-0.008307283 -0.012170042 -0.009187418 -0.0021816941 -0.0073181344 0.0048890263 -0.0065341396 0.005418253
-0.003890268 -0.010680047 0.015428903 -0.09255902 -0.0022463559 0.6243393 0.07343259 -0.0448411
00000000: eb78 173d 8382 75bd 4956 fc3c e76a 9fbe
00000010: bf48 853c c1d4 43bd 0ef7 c6bd 08ea b9bd
00000020: 1b8c f7bc 2253 983d 120a 633c 4ba9 893d
00000030: 2dd9 2fbd 6558 c43b 3f0e 7cbd 1ff3 113e
00000040: 0ace 213d b9f7 473e e33c b23d ae9d d93d
00000050: b5e4 9cbd 29df 2abc 2223 f7bc 95eb 563c
00000060: 5d7a e2bc bfca 4ebd 4ca3 5c3d 16f0 483d
00000070: 8e50 913c 04d2 0f3e f190 da3d 1e0c 7bbc
00000080: e3ec e13d f8fa 2f3d 0fe8 403d a742 e53d
00000090: cc4d b2bc ccd2 7c3c fd95 8c3d a12d 23bd
000000a0: bf95 5e3d 8272 a5bd 6fee 8b3d fec9 07bd
000000b0: 5a79 71bc 8a45 b83b 5b57 1dbd b517 e4bd
000000c0: 6412 ad3d 07b7 a43b 19a4 abbd cc55 d93c
000000d0: ff24 2a3d f185 4ebd dbfc 303d 5150 92bc
000000e0: f1d5 b43e a415 4ebc d432 67bd bf54 183c
000000f0: 72af 5ebd 2714 123d 6529 443c 4065 c1bc
00000100: bf4a 303d 9d51 edbc ca37 48bc 5b6c 2e3e
00000110: e6b7 3abd dcb4 95bd cc93 b03b 53e7 cdbd
00000120: 8869 dbbc 2cd2 f23b 62b5 1339 c51a 823d
00000130: a680 26bd c972 35be 84d4 7b3d 84d0 96bd
00000140: 8043 0f3c 8b38 d6bd 7070 af3c 214f 8a3c
00000150: 4c87 2f3d f55e 133d 23bd b2bd d755 b03c
00000160: 4386 fdbc 601b 08bd c0c6 7bbc 441c d43c
00000170: 6784 5dbc 45a1 86bd bb4d 343c 4a92 11bc
00000180: a801 283c 42d9 3b3c 1053 66bd 2bbf 1e3e
00000190: d5bb 4cbd 50ac f6bb fb22 8ebb a3aa aa3e
000001a0: 38bb 8ebd 8272 b5bc f40d e13d 3608 2cbd
000001b0: d7fd 92bc db2b 41bd 7b80 86bd 37d4 1dbd
000001c0: ab35 a5bc 978b d1bb 419d 3fbd 982a 6538
000001d0: 1ef9 d6bc 8169 bebd c059 f5bb 58ef b4bc
000001e0: bcb9 de3b 2ad0 eebb 43dc 17bd 8a4e 42bc
000001f0: e8eb 2cbd 4c12 403c 42ca 873c 2bcf cc3b
00000200: 6e5f 963c b33a a839 aad9 f93c 8839 1fbc
00000210: 3b3e 31bd 004f 443c 5fd1 b53c 8313 c63c
00000220: 5173 09bd f455 103d beb5 863c fc29 f7bc
00000230: 5fbb 98bc 9998 b6bc b3fe 083b 7e6b 243a
00000240: 408e 82bc b3e8 5ebc 1efe babc 0f89 afba
00000250: d255 14bc f686 b73b ccf1 12bd 1068 7bbd
00000260: 9267 9bb9 9cdd 313f 7921 b03d 6e37 7e3c
00000270: 6283 f53d 6490 b0bd 3639 ddbc 44f6 e23c
00000280: 08f5 87bd dd28 03bd 53e6 78bd ef57 d0bd
00000290: 56e9 4cbd 5bec 9ebd 6b75 73bb 8fcf 223d
000002a0: 3650 a63d 0c0f 263d 1fb2 d83b 4eb4 a3bc
000002b0: cf55 2b3d 66e7 3b3d b764 323d d84b 3d3c
000002c0: b014 0bbd 9b6f f4be cad7 a1bb 0c07 f3bc
000002d0: 3309 6cbd e0f6 d03c 2114 083d bb53 efbc
000002e0: f791 0ebd 7862 29bd 844d c63d e76b 95bd
000002f0: 8878 82bd c274 a33c c461 0abc cd06 d9bd
00000300: 8ce7 90bc 56ca 2c3d ac68 2fbc ca1d 7d3d
00000310: 4236 95bd a4db 8f3c c15d 6ebd 7bab c63c
00000320: ee0a 703b bf41 5dbc ca3a 97bb ea81 26bd
00000330: adf4 72bc f6c3 00bc 8384 eebb 9712 1d3b
00000340: 9b8f a4bc 8642 5abb 397a cdbb 894f 61bb
00000350: 8546 ccb8 5c2b 16bb 2e1e 32bc 19c7 dfba
00000360: 056e f0bb a88e 6fbd 94e6 0bbb 8016 d2bb
00000370: 4156 75bc c4cb 3bbb 0531 68bc 8cba 6c3b
00000380: f2d8 a1bb 3a9f 19bc 755a 95ba f5e6 85bc
00000390: c1af fcb9 a160 cdbc 727e 8dbb 2260 13bc
000003a0: b457 60bb 1cd1 b2bb 4495 59bb 0ca3 80bc
000003b0: fa95 c43a 2567 ecba e2fa 4eba 6d15 3f3a
000003c0: 451b 08bc db64 47bc d386 16bc c1fa 0ebb
000003d0: f6cc efbb 2034 a03b 561c d6bb 9a8b b13b
000003e0: def3 7ebb 5dfb 2ebc 82c9 7c3c 958f bdbd
000003f0: 9937 13bb b3d4 1f3f d363 963d 4dab 37bd

attention_layers.0.in_proj_bias f4 [150]
0.10407852 0.24393226 -0.048892647 0.14986739 -0.0816135 -0.25764394 -0.29015946 -0.23522557
0.5582491 -0.02929497 -0.9127837 -0.10427742 -0.17787015 -0.6413038 -0.12187182 0.9125828
1.3717179 -0.05380323 -0.043651722 -1.0081854 -0.41338816 0.039401513 -0.02475356 0.09040898
0.18754552 -0.66352594 -0.11244124 0.1897443 0.35960633 0.0029521878 -0.20794731 -0.40824965
-0.24863788 0.081416555 -0.10970674 0.28040504 -0.028959243 -0.00015795066 -0.3298864 0.20334135
-0.65205455 -0.13561745 -0.06063069 -0.64711255 0.0065795556 -0.20169166 -0.019037927 -0.3649776
-0.15981713 -0.24819244 -0.00012631863 0.00019618825 -0.00014512526 -0.00023560572 0.00013227497 -0.00026637173
-0.00010568338 0.0001072578 0.0001939693 -9.167601e-05 -0.00030426637 -0.00014573698 -6.981591e-05 0.0004100928
-0.00014958148 0.00022307462 0.00032186453 -1.0248775e-05 -0.00012032807 -6.40709e-05 -0.00013200073 -0.00019440507
0.00016760245 -0.000109051136 0.00019616942 0.00012280438 8.9303285e-05 8.131424e-05 -0.0003116106 -0.00021377268
7.419086e-05 -7.693284e-05 -0.00019262105 -7.155419e-05 0.00028256973 0.00020054459 -6.294796e-05 -0.00018225393
0.000116298754 -0.00025168416 -0.00020303886 0.00010569646 -5.4824497e-05 0.000106076426 5.4770033e-05 0.00018165227
-9.1337104e-05 -0.00014951592 5.579686e-05 0.00014939516 0.20983775 -0.21061541 0.28511935 -0.10383434
0.38594764 0.057925113 -0.12117479 -0.20341401 0.12854293 0.18262015 0.15368955 -0.31314218
0.08952543 0.028304294 0.50411403 0.13565278 0.13538335 0.08952513 -0.78616434 0.0006979078
0.016680293 0.17970745 0.21908219 0.17330399 0.31188136 0.033533968 0.034471992 -0.06119659
0.0045711435 0.46737307 -0.28690937 -0.34676766 0.059847463 0.3362521 -0.04036664 0.051915117
0.09408461 -0.35511675 0.052862693 0.10973082 0.37581939 0.2912959 -0.1487694 0.17697683
-0.1102174 -0.014812581 0.34052426 -0.12912478 -0.06620886 -0.43718714
00000000: 1e27 d53d 61c9 793e a843 48bd d676 193e
00000010: fb24 a7bd e8e9 83be c88f 94be f9de 70be
00000020: 6ae9 0e3f 01fc efbc 31ac 69bf 668f d5bd
00000030: 9823 36be 7c2c 24bf ef97 f9bd 079f 693f
00000040: 7494 af3f c760 5cbd 26cc 32bd 380c 81bf
00000050: 9da7 d3be 7b63 213d fac7 cabc 5828 b93d
00000060: ef0b 403e d6dc 29bf 9847 e6bd 544c 423e
00000070: 521e b83e 7e79 413b 24f0 54be 1906 d1be
00000080: ee9a 7ebe b9bd a63d edad e0bd 4091 8f3e
00000090: ef3b edbc 8f9f 25b9 dfe6 a8be b738 503e
000000a0: 0ced 26bf 4ddf 0abe e357 78bd 2ba9 25bf
000000b0: 5099 d73b 4288 4ebe 6df5 9bbc 58de babe
000000c0: 1aa7 23be 2926 7ebe 6674 04b9 e2b7 4d39
000000d0: c42c 18b9 ee0c 77b9 4bb3 0a39 cfa7 8bb9
000000e0: 55a2 ddb8 98ef e038 3d64 4b39 2f42 c0b8
000000f0: f185 9fb9 f9d0 18b9 226a 92b8 b901 d739
00000100: f9d8 1cb9 23e9 6939 edbf a839 27f2 2bb7
00000110: a458 fcb8 cd5d 86b8 ad69 0ab9 37d9 4bb9
00000120: 71be 2f39 62b2 e4b8 d4b2 4d39 0dc5 0039
00000130: 5648 bb38 4087 aa38 ab5f a3b9 2b28 60b9
00000140: ea96 9b38 0157 a1b8 52fa 49b9 5d0f 96b8
00000150: de25 9439 4749 5239 ee02 84b8 6b1b 3fb9
00000160: 6be5 f338 7af4 83b9 d4e6 54b9 5ba9 dd38
00000170: 5bf3 65b8 5975 de38 e0b8 6538 e979 3e39
00000180: 3c8c bfb8 60c7 1cb9 6c07 6a38 f5a6 1c39
00000190: b5df 563e 91ab 57be 2afb 913e 19a7 d4bd
000001a0: ee9a c53e e242 6d3d 7d2a f8bd c34b 50be
000001b0: c2a0 033e c700 3b3e cb60 1d3e 2c54 a0be
000001c0: 1c59 b73d 68de e73c 9e0d 013f 90e8 0a3e
000001d0: efa1 0a3e f458 b73d 1142 49bf cdf3 363a
000001e0: 1ca5 883c 3b05 383e 1557 603e 9a76 313e
000001f0: eaae 9f3e ea5a 093d 8132 0d3d 47a9 7abd
00000200: 88c9 953b 864b ef3e c9e5 92be 888b b1be
00000210: 9d22 753d 3c29 ac3e 7d57 25bd f2a4 543d
00000220: 6faf c03d ddd1 b5be 8d86 583d 8dba e03d
00000230: 666b c03e bc24 953e 0157 18be 6a39 353e
00000240: a9b9 e1bd 78b0 72bc 3259 ae3e 4939 04be
00000250: 8398 87bd fed6 dfbe

attention_layers.0.out_proj.weight f4 [50, 50]
-0.0030959644 0.23677407 -0.22322609 0.050000846 -0.037226867 -0.053528573 -0.11179795 0.00427044
-0.5436943 -0.24086279 -0.009003637 0.18538606 -0.14309707 -0.11063496 -0.18995368 0.109914556
-0.07082006 -0.0071548084 0.106224395 0.023581099 -0.07991596 -0.024052214 -0.24466322 -0.035959326
-0.21537921 0.10403385 -0.117608756 -0.14149478 -0.11195155 0.06095426 -0.077578425 0.18825069
0.08523381 -0.12503546 -0.193346 0.14345089 0.15140735 0.023109937 -0.15536344 0.048400946
-0.16788054 -0.29703304 -0.012637597 0.11233133 0.07093794 -0.30429044 -0.032961648 0.5008592
0.05488782 0.24308002 -0.1098016 -0.09463066 -0.5962116 -0.34960294 -0.06438232 0.270635
-0.34793928 0.07016306 0.0030407212 -0.48070717 -0.035345327 -0.044195175 0.18087934 -0.09174943
0.13698518 -0.07352215 0.093225576 -0.08125325 -0.19251074 -0.068120465 0.025877701 0.3678584
-0.047696747 -0.16771579 0.20891877 0.095801234 0.21512136 0.074045576 0.10793437 0.41229293
-0.18816407 -0.25495267 -0.2553283 -0.18477304 0.13754255 0.28490028 0.40200505 -0.24364436
-0.062163185 -0.065119036 0.3400367 -0.047451988 0.15510628 0.20811357 -0.25843838 0.45766795
0.16709949 -0.17067932 0.062921986 -0.18706895 -0.103230745 -0.2920291 -0.23059353 -0.06279359
-0.04098857 0.1994333 -0.10004271 0.06589348 0.0020662623 -0.034028832 0.05474442 0.43083453
0.20538592 -0.033728115 -0.23433076 0.079363786 0.072334334 -0.34734225 0.239472 -0.09760366
-0.12495914 0.040919654 0.061983295 0.014640637 -0.21217473 -0.24471436 0.03487199 0.054582387
-0.13195911 -0.028244857 0.18871038 -0.29132637 -0.08683503 -0.16190587 -0.2145537 0.19341858
0.15597476 0.13148482 -0.016474191 -0.02415918 -0.17537987 -0.057466906 -0.06397354 -0.077904664
-0.13552943 0.05636872 0.087891735 -0.19311103 -0.07998231 -0.0073231217 -0.8619341 -0.15712136
-0.034859236 -0.08098695 0.40852922 -0.40241653 -0.39391178 0.24884675 0.2284796 -0.5570603
-0.42793396 -0.20153944 0.3106079 0.20576967 0.20037223 0.27844957 -0.1555068 -0.14201853
0.09077374 -0.16825947 -0.0407891 0.08238196 -0.14043266 0.52384794 -0.33100137 -0.22619914
-0.07070837 0.16064928 0.111445256 -0.32992473 -0.09306374 0.13428405 0.5380444 0.23321296
0.037139222 -0.8859587 -0.5161974 0.12997471 0.24330358 0.0462578 -0.15066259 0.2645156
-0.03705089 -0.07969738 0.14710894 -0.10318672 -0.14797567 -0.05095567 1.0007392 -0.569061
0.038384832 0.36411825 0.10382946 -0.02456857 -0.012706039 -0.013798906 -0.43118522 0.047499042
-0.16639285 0.4008117 -0.0008880745 0.33102694 0.1378684 -0.20676288 0.031222371 0.023793453
0.3010461 0.040396024 0.00380903 -0.25267813 -0.34002402 -0.2529929 0.41446546 -0.2891532
0.34750268 -0.13625114 0.22294398 0.06196897 0.16789918 -0.018396994 -0.17641263 -0.10635316
0.18577105 0.13313673 -0.23687978 -0.19682859 0.25953165 0.20905073 0.18619943 -0.22405918
0.19402893 0.2578519 0.017468086 -0.092293344 0.015751882 0.183149 -0.11122669 -0.054966375
-0.044005834 0.08802558 -0.06194718 -0.013858306 0.039991666 0.0061148135 0.026107024 -0.38126272
00000000: aae5 4abb e774 723e 6195 64be b0cd 4c3d
00000010: 337b 18bd c740 5bbd 53f6 e4bd 0cef 8b3b
00000020: 8d2f 0bbf bca4 76be fe83 13bc d8d5 3d3e
00000030: 0a88 12be 9594 e2bd 3883 42be e21a e13d
00000040: 1c0a 91bd e272 eabb 2d8c d93d 262d c13c
00000050: fbaa a3bd 2609 c5bc ff88 7abe 164a 13bd
00000060: 5e8c 5cbe b30f d53d dcdc f0bd 02e4 10be
00000070: db46 e5bd 2dab 793d 70e1 9ebd cac4 403e
00000080: 108f ae3d 4c09 00be 7efc 45be cae4 123e
00000090: 870a 1b3e 0d51 bd3c 9817 1fbe 1240 463d
000000a0: e0e8 2bbe b714 98be ec0d 4fbc f80d e63d
000000b0: e947 913d f5cb 9bbe cb02 07bd 4f38 003f
000000c0: 0dd2 603d f8e9 783e a9df e0bd b8cd c1bd
000000d0: 53a1 18bf 28ff b2be e1da 83bd ac90 8a3e
000000e0: 1925 b2be a7b1 8f3d d646 473b 401f f6be
000000f0: 43c6 10bd 0006 35bd 6f38 393e 20e7 bbbd
00000100: d845 0c3e c892 96bd 0ded be3d 1b68 a6bd
00000110: 8921 45be be82 8bbd 79fd d33c f057 bc3e
00000120: aa5d 43bd b0bd 2bbe cdee 553e 7033 c43d
00000130: c648 5c3e 35a5 973d b20c dd3d 0f18 d33e
00000140: 15ae 40be 2889 82be 64ba 82be 2535 3dbe
00000150: f4d7 0c3e 73de 913e 9bd3 cd3e e87d 79be
00000160: d39e 7ebd 215d 85bd 4a19 ae3e 045d 42bd
00000170: 2ed4 1e3e b91b 553e 0952 84be 7453 ea3e
00000180: 211c 2b3e 8fc6 2ebe 3edd 803d 018f 3fbe
00000190: a46a d3bd d784 95be b620 6cbe ed99 80bd
000001a0: a1e3 27bd 3e38 4c3e 31e3 ccbd 29f3 863d
000001b0: 216a 073b d161 0bbd af3b 603d 5896 dc3e
000001c0: b050 523e 7e26 0abd 67f4 6fbe 7b89 a23d
000001d0: 0624 943d d8d6 b1be 2638 753e 6de4 c7bd
000001e0: 94ea ffbd 5e9b 273d 32e2 7d3d 48df 6f3c
000001f0: 5544 59be 6796 7abe efd5 0e3d c891 5f3d
00000200: 4a20 07be c261 e7bc 4b3d 413e bb28 95be
00000210: 90d6 b1bd a7ca 25be f7b3 5bbe 850f 463e
00000220: d9b7 1f3e f5a3 063e e2f4 86bc 79e9 c5bc
00000230: c896 33be 6b62 6bbd 8f04 83bd 7b8c 9fbd
00000240: 3ac8 0abe e3e2 663d 9500 b43d e6be 45be
00000250: c4cd a3bd ccf6 efbb b7a7 5cbf 6ce4 20be
00000260: 8fc8 0ebd 7cdc a5bd be2a d13e 8a09 cebe
00000270: ceae c9be afd1 7e3e 8ef6 693e 819b 0ebf
00000280: 291a dbbe 5b60 4ebe 0008 9f3e 49b5 523e
00000290: 612e 4d3e f190 8e3e 2d3d 1fbe 4e6d 11be
000002a0: 95e7 b93d 364c 2cbe 7912 27bd dfb7 a83d
000002b0: 94cd 0fbe e61a 063f 0379 a9be bfa0 67be
000002c0: 8dcf 90bd 3f81 243e 693d e43d e5eb a8be
000002d0: 3498 bebd c281 093e 47bd 093f 61cf 6e3e
000002e0: 4c1f 183d 30ce 62bf 8325 04bf 1718 053e
000002f0: 9324 793e d278 3d3d 4b47 1abe 976e 873e
00000300: adc2 17bd 6138 a3bd baa3 163e 8f53 d3bd
00000310: ef86 17be e5b6 50bd 3918 803f fbad 11bf
00000320: 6a39 1d3d b56d ba3e 8aa4 d43d 0744 c9bc
00000330: fd2c 50bc ce14 62bc 4fc4 dcbe 5b8e 423d
00000340: e362 2abe 3137 cd3e accd 68ba 5d7c a93e
00000350: 602d 0d3e a6b9 53be 0fc6 ff3c 7dea c23c
00000360: b722 9a3e 4d76 253d eba0 793b 075f 81be
00000370: a117 aebe 4988 81be d134 d43e e30b 94be
00000380: dfeb b13e 6b85 0bbe 6d4b 643e 2dd3 7d3d
00000390: c3ed 2b3e 4bb5 96bc 83a5 34be b0cf d9bd
000003a0: c43a 3e3e ff54 083e 9d90 72be 6f8d 49be
000003b0: 55e1 843e 6511 563e 10ab 3e3e c56f 65be
000003c0: 85af 463e 2a05 843e 3b19 8f3c 4b04 bdbd
000003d0: 170a 813c 698b 3b3e d2ca e3bd 6c24 61bd
000003e0: 763f 34bd c146 b43d 54bc 7dbd f30d 63bc
000003f0: 4dce 233d c65e c83b 66de d53c de34 c3be

attention_layers.0.out_proj.bias f4 [50]
-0.022654293 -0.22954486 -0.13803452 -0.28549853 -0.6629455 0.25873223 0.56739295 -0.011979941
-0.38730702 0.20066737 0.19870636 -0.056126583 -0.19244769 -0.0011555728 0.16020566 -0.18936159
-0.2561499 -0.85997635 0.73347664 0.22139785 0.28376725 0.5153184 -0.032968655 0.023025779
0.019606847 0.10335249 0.029067064 0.018450344 0.05444046 0.10528575 0.0042262427 -0.007020507
-0.04878313 -0.20980068 0.025204504 0.31444257 0.39408347 0.25092214 -0.051010482 0.10714547
0.07988447 0.06878382 0.10360263 -0.4389057 0.072629325 0.34127095 -0.19985516 0.091784604
-0.4978214 -0.51738757
00000000: 7f95 b9bc cf0d 6bbe ec58 0dbe dd2c 92be
00000010: ccb6 29bf 8d78 843e aa40 113f 8447 44bc
00000020: 1b4d c6be bf7b 4d3e ae79 4b3e fde4 65bd
00000030: 0211 45be 9776 97ba f40c 243e 01e8 41be
00000040: 1426 83be 6927 5cbf 20c5 3b3f 1eb6 623e
00000050: f149 913e e8eb 033f 240a 07bd 8fa0 bc3c
00000060: 8a9e a03c 78aa d33d 0d1e ee3c 2d25 973c
00000070: f6fc 5e3d 0ea0 d73d 4b7c 8a3b 480c e6bb
00000080: d2d0 47bd fdd5 56be ad79 ce3c 9efe a03e
00000090: 4fc5 c93e de78 803e 5ef0 50bd 166f db3d
000000a0: 789a a33d 88de 8c3d 9e2d d43d 3fb8 e0be
000000b0: afbe 943d 11bb ae3e d5a6 4cbe 91f9 bb3d
000000c0: 72e2 febe 8373 04bf

attention_layers.1.in_proj_weight f4 [150, 50]
0.18309268 -0.063102804 -0.30796897 0.30478147 -0.0830346 0.048451636 0.44379997 -0.059951846
-0.22520222 -0.088294 0.0079291705 -0.05230924 -0.21648712 -0.06034022 -0.022311848 -0.08593467
0.12486061 0.0030788297 0.056890566 -0.01663493 -0.12579061 0.13182884 -0.1688536 -0.14058608
0.2802811 0.20939955 -0.029505795 0.41857532 0.44926986 0.116489366 -0.09183734 -0.1354706
0.048487164 -0.062572114 0.009374353 0.12780452 0.1158007 -0.030314969 0.020268373 0.019120404
0.029022159 -0.26528737 0.12962548 -0.14085156 -0.13626048 0.17130166 -0.049728096 0.0852623
-0.11103353 -0.23281816 0.01253523 -0.053615537 -0.22431855 -0.18441072 0.2990378 -0.11731134
0.31086823 -0.042636946 -0.015167117 -0.039871063 -0.1277562 0.023747755 0.12259015 0.06627467
0.11976317 -0.0071579106 -0.10447317 -0.2293981 -0.0030174167 -0.035928737 0.057108957 -0.15807877
0.3038018 0.021079488 -0.059361007 0.031444155 0.03273931 -0.76168215 0.06059317 0.22124982
-0.04341533 -0.17425202 -0.006674948 -0.05197692 0.0230868 0.112351306 0.118219495 0.030269941
0.104994446 -0.06939762 -0.03910723 -0.06702244 -0.05628734 0.401941 0.11448846 0.10485445
-0.023025233 -0.043280505 0.14598884 0.4801053 -0.11138888 0.0060594208 -0.021896796 0.18169896
0.018428775 -0.008789401 0.43168974 -0.1128005 0.06926083 -0.032686453 -0.04168972 -0.1688534
0.20709309 0.31293005 -0.076789014 0.023064451 0.05385539 0.13675085 0.11792797 -0.07295982
0.13914895 -0.11091246 -0.04051587 -0.08687341 -0.033496816 -0.20852631 0.08051795 0.9165675
-0.22924522 0.29772222 0.012054467 -0.0078469245 -0.11327858 -0.08948332 0.088086694 -0.055653907
-0.21774802 0.013327942 -0.054348122 0.09552331 0.10828981 -0.018809898 0.052166775 0.09622501
0.151982 0.005055702 0.018708825 -0.103888325 0.11028289 -0.41901642 -0.29840764 0.062226865
0.046116617 0.00496876 -0.30335718 -0.11994252 0.3248401 0.013768568 -0.033377845 -0.1363716
0.06955892 0.031047478 0.14013438 0.15978263 0.089169264 0.13475536 -0.12221439 -0.09644245
-0.00079293636 0.035480674 0.067150235 0.047188476 0.18678132 -0.13854802 -0.00064165564 -0.12426882
0.11442079 -0.2276852 -0.053997625 -0.02445199 0.03448918 -0.25691035 0.17240681 0.20002572
-0.0068162917 0.14883888 0.16216908 0.1103895 0.17925708 0.27737567 0.023204435 0.028010925
0.019218192 0.104776874 0.20329458 0.03920561 0.15050066 0.07309971 -0.028071204 0.14217371
0.015515017 0.0750846 -0.0020455157 0.010522897 -0.0014886912 -0.05673003 0.38746217 0.11592629
0.0032811223 -0.13397826 0.10855661 0.104229756 -0.20287189 0.0030261807 -0.03515107 -0.07877529
-0.39049828 -0.06045507 0.056450088 -0.07914151 -0.19795671 -0.17978217 -0.15830575 -0.13162415
-0.056740165 -0.04334274 0.06808219 0.38946503 -0.34950158 -0.09238764 0.19114871 -0.08976456
-0.104788125 -0.06727857 -0.049835503 0.28459904 -0.0127755795 0.26123393 0.03682282 0.032104596
-0.0036930388 -0.08676927 -0.05993701 0.20788296 -0.33591425 0.11152331 0.06516386 -0.04918562
0.16490749 -0.042813875 0.013799441 -0.08277576 -0.04928569 -0.70400333 -0.20095266 0.07498147
00000000: a67c 3b3e 0b3c 81bd 1cae 9dbe 510c 9c3e
00000010: 0b0e aabd 3975 463d c039 e33e 1190 75bd
00000020: 699b 66be 7cd3 b4bd 5ae9 013c 3742 56bd
00000030: cdae 5dbe 4e27 77bd 56c7 b6bc 84fe afbd
00000040: ebb6 ff3d 31c6 493b 1506 693d fa45 88bc
00000050: 41cf 00be 24fe 063e f5e7 2cbe ccf5 0fbe
00000060: 0181 8f3e d66c 563e 23b6 f1bc 814f d63e
00000070: b306 e63e fa91 ee3d 3715 bcbd ceb8 0abe
00000080: 7a9a 463d cf25 80bd e396 193c 30df 023e
00000090: eb28 ed3d 1957 f8bc dc09 a63c 65a2 9c3c
000000a0: e1bf ed3c bfd3 87be 8bbc 043e 643b 10be
000000b0: de87 0bbe b469 2f3e b0af 4bbd 009e ae3d
000000c0: 8c65 e3bd e267 6ebe 9160 4d3c f79b 5bbd
000000d0: c3b3 65be 2ad6 3cbe 7c1b 993e ee40 f0bd
000000e0: 1f2a 9f3e 14a4 2ebd 807f 78bc d74f 23bd
000000f0: 85d2 02be a78a c23c 8b10 fb3d 04bb 873d
00000100: 6546 f53d e88c eabb 08f6 d5bd 56e7 6abe
00000110: dabf 45bb 032a 13bd 15eb 693d 67df 21be
00000120: e98b 9b3e e4ae ac3c 8724 73bd 96cb 003d
00000130: a819 063d 9afd 42bf 8b30 783d 508f 623e
00000140: 46d4 31bd 1f6f 32be 86b9 dabb c0e5 54bd
00000150: 8720 bd3c 7118 e63d 101d f23d abf8 f73c
00000160: 5407 d73d 5720 8ebd e72e 20bd 1043 89bd
00000170: 8e8d 66bd 36cb cd3e ed78 ea3d eebd d63d
00000180: 6a9f bcbc e646 31bd 197e 153e 5dd0 f53e
00000190: da1f e4bd 1b8e c63b e960 b3bc 4b0f 3a3e
000001a0: f1f7 963c 6b01 10bc 7006 dd3e f303 e7bd
000001b0: 9fd8 8d3d 3be2 05bd d7c2 2abd e8e7 2cbe
000001c0: 3610 543e 5e38 a03e 8f43 9dbd a9f1 bc3c
000001d0: 7897 5c3d 6a08 0c3e 3884 f13d f56b 95bd
000001e0: 107d 0e3e 1226 e3bd f8f3 25bd b0ea b1bd
000001f0: f533 09bd ec87 55be 98e6 a43d 2ba4 6a3f
00000200: 42bf 6abe 0c6f 983e 1980 453c 6390 00bc
00000210: 9afe e7bd 0843 b7bd cc66 b43d 5af5 63bd
00000220: 56f9 5ebe 715d 5a3c 239c 5ebd baa1 c33d
00000230: 0cc7 dd3d 3717 9abc d4ac 553d 9e11 c53d
00000240: 2ba1 1b3e 4daa a53b 4043 993c 67c3 d4bd
00000250: ffdb e13d 5289 d6be e3c8 98be 99e1 7e3d
00000260: c7e4 3c3d fbd0 a23b a251 9bbe 6da4 f5bd
00000270: 7151 a63e 8f95 613c 35b7 08bd ffa4 0bbe
00000280: e874 8e3d 4857 fe3c 637f 0f3e 0f9e 233e
00000290: 609e b63d 4ffd 093e 8a4b fabd 9f83 c5bd
000002a0: 0fdd 4fba 2f54 113d 1086 893d b448 413d
000002b0: 9a43 3f3e 88df 0dbe c834 28ba a780 febd
000002c0: 7255 ea3d 4f26 69be 9d2c 5dbd 8a4f c8bc
000002d0: 8744 0d3d c189 83be 698b 303e 8bd3 4c3e
000002e0: 335b dfbb 3869 183e a70f 263e e413 e23d
000002f0: 2b8f 373e 2f04 8e3e 3a17 be3c 2b77 e53c
00000300: 786f 9d3c 4295 d63d 742c 503e 1096 203d
00000310: d81c 1a3e 4db5 953d 95f5 e5bc fc95 113e
00000320: b332 7e3c f4c5 993d 0f0e 06bb 3b68 2c3c
00000330: 3020 c3ba bf5d 68bd 7161 c63e c36a ed3d
00000340: 1908 573b 9931 09be ee52 de3d 6976 d53d
00000350: a6bd 4fbe e352 463b 92fa 0fbd f054 a1bd
00000360: 64ef c7be bc9f 77bd 3538 673d f214 a2bd
00000370: 2ab5 4abe d118 38be e71a 22be 7bc8 06be
00000380: 6068 68bd 2888 31bd ad6e 8b3d f667 c73e
00000390: dff1 b2be bb35 bdbd 7dbc 433e 7bd6 b7bd
000003a0: 289b d6bd 59c9 89bd 5020 4cbd f7b6 913e
000003b0: aa50 51bc 74c0 853e 86d3 163d 1c80 033d
000003c0: e906 72bb 16b4 b1bd 8380 75bd 45df 543e
000003d0: f4fc abbe 5566 e43d a174 853d dc76 49bd
000003e0: 82dd 283e 9a5d 2fbd 0d17 623c 5686 a9bd
000003f0: cbdf 49bd 9039 34bf 89c6 4dbe e38f 993d

attention_layers.1.in_proj_bias f4 [150]
-0.3382113 -0.10056161 0.38791108 -0.5514135 -0.15636355 -0.07532693 0.05426423 -0.121392526
0.003640066 0.30197385 -0.6849036 -0.69997317 -0.014344386 0.03902174 -0.07920218 -0.7305586
-0.068942964 -0.068048924 0.509153 -0.15590124 -0.19105208 0.35136703 -0.38669887 0.0900487
0.037584677 0.05916266 0.05459452 -0.24124023 0.013298862 0.022114532 0.16197833 -0.17412333
0.13143165 0.6968136 -0.24918658 0.46870363 0.47665194 0.48711783 -0.3501296 -0.3144883
0.33738124 0.30890977 -0.6082276 0.38013622 -0.8055752 -0.47713062 -0.41469032 -0.5416753
-0.7130263 0.15611053 0.01189163 0.0021319352 -0.0007575165 0.011461717 -0.0021482285 0.0024075739
0.00028394462 0.0027022453 -0.0003286334 -0.02663021 0.01506441 -0.00059337664 0.0030155263 0.00060225977
-0.0023881793 0.00096374634 -0.00016190401 0.002198529 -0.0122721195 -0.0010015105 0.009968524 -0.0011645511
0.00040066004 0.0005924101 -0.0006216936 -0.0010108949 0.0049434593 0.016114393 0.010359051 0.001030493
-0.0026766863 0.013263736 -0.0074769943 -0.041971628 -0.00048934564 -0.0006289433 -0.006104449 -0.018339796
-0.0019506471 0.00090991514 -0.0029685688 -0.00018963727 0.017791562 -0.069385275 -0.0024369326 0.007589121
0.0016958205 0.014513848 0.00507829 -0.002928996 -0.5189484 0.0758757 0.18382245 0.049018178
0.34656957 0.121846914 -0.03587694 -0.1697404 0.06395 0.096530534 0.14571007 -0.038462967
0.14925203 0.041307878 -0.4507113 0.106256045 0.050012026 -0.22984411 -0.025823519 0.20466867
0.19001456 0.16745757 0.0005388851 -0.08382858 0.040379934 -0.016916193 -0.09314057 -0.063211456
-0.025540087 -0.38308972 0.1802998 0.023388356 0.28261343 0.13684005 0.108706005 0.36454555
0.23394229 0.16994669 -0.005573729 0.10371316 0.30266973 -0.14853585 -0.31043467 0.30590814
-0.023066953 -0.21368963 0.16896217 0.14365245 0.2612017 -0.18643765
00000000: 082a adbe 3ff3 cdbd 489c c63e 6f29 0dbf
00000010: c41d 20be 0145 9abd 2b44 5e3d a59c f8bd
00000020: 2c8e 6e3b 519c 9a3e d855 2fbf 7131 33bf
00000030: b704 6bbc 43d5 1f3d c134 a2bd e305 3bbf
00000040: f831 8dbd 3c5d 8bbd da57 023f 93a4 1fbe
00000050: 28a3 43be 61e6 b33e 65fd c5be 746b b83d
00000060: 64f2 193d 8c54 723d 819e 5f3d ae07 77be
00000070: 78e3 593c 8929 b53c a6dd 253e 634d 32be
00000080: 0596 063e 6062 323f c42a 7fbe ecf9 ef3e
00000090: b90b f43e 8267 f93e 3044 b3be 9c04 a1be
000000a0: 3cbd ac3e 6c29 9e3e ceb4 1bbf 37a1 c23e
000000b0: 2d3a 4ebf 774a f4be 4a52 d4be 3cab 0abf
000000c0: e488 36bf 70db 1f3e 1cd5 423c f0b7 0b3b
000000d0: 1294 46ba edc9 3b3c 4bc9 0cbb 63c8 1d3b
000000e0: 67de 9439 2718 313b 6e4c acb9 9927 dabc
000000f0: b7d0 763c d58c 1bba 23a0 453b f8e0 1d3a
00000100: 0083 1cbb eca3 7c3a c7c4 29b9 3215 103b
00000110: 0011 49bc 1e45 83ba 0553 233c daa3 98ba
00000120: ae0f d239 f84b 1b3a 27f9 22ba 0180 84ba
00000130: befc a13b 5502 843c 02b9 293c 9b11 873a
00000140: 586b 2fbb 2450 593c 9301 f5bb 71ea 2bbd
00000150: 6e47 00ba acdf 24ba d407 c8bb 573d 96bc
00000160: dbac ffba 5f87 6e3a 528c 42bb 5ed9 46b9
00000170: 9cbf 913c de19 8ebd f2b4 1fbb 29ae f83b
00000180: 4b46 de3a 7ecb 6d3c c967 a63b 66f4 3fbb
00000190: cdd9 04bf b864 9b3d f43b 3c3e 49c7 483d
000001a0: 9171 b13e e08a f93d b3f3 12bd 6dd0 2dbe
000001b0: 38f8 823d cdb1 c53d 0535 153e 588b 1dbd
000001c0: 86d5 183e 7332 293d a2c3 e6be c59c d93d
000001d0: 69d9 4c3d 415c 6bbe d88b d3bc aa94 513e
000001e0: 2d93 423e ff79 2b3e f843 0d3a 52ae abbd
000001f0: 6e65 253d d493 8abc 7cc0 bebd 0275 81bd
00000200: 7239 d1bc 5624 c4be 83a0 383e f098 bf3c
00000210: b5b2 903e cc1f 0c3e 41a1 de3d b7a5 ba3e
00000220: 918e 6f3e 8106 2e3e d4a3 b6bb 9167 d43d
00000230: 87f7 9a3e c819 18be 4bf1 9ebe fe9f 9c3e
00000240: e8f6 bcbc 74d1 5abe 6b04 2d3e a119 133e
00000250: 3bbc 853e 83e9 3ebe

attention_layers.1.out_proj.weight f4 [50, 50]
-0.08793281 0.3864124 0.29848674 -0.25242788 0.20001538 0.20992361 -0.031356495 0.19900377
-0.8059701 -0.10073508 0.17006351 -0.1911635 0.2770358 -0.2703751 -0.13321403 -0.02027747
-0.068633184 0.31318444 -0.080552004 0.43158713 0.25419995 0.48974702 -0.043288466 0.050993886
0.031021308 -0.029455762 0.24578102 0.17284022 0.03253723 0.17618158 -0.04063214 0.3011252
0.32028267 0.2404881 0.13405292 -0.1503341 -0.11714059 -0.11303096 -0.008303267 -0.22801088
-0.2201639 -0.28931424 0.036068007 0.23464765 0.3459335 -0.06762087 0.043173842 -0.26847586
-0.04438189 0.31496537 -0.33976725 -0.19929041 -0.5097486 -0.05281725 0.23568423 0.042557273
-0.37279248 0.4780125 -0.28830245 0.72954386 0.1470371 0.041897446 -0.32986364 0.013956115
-0.2363808 -0.02208414 -0.85752517 -0.4718467 -0.07909526 -0.34713113 0.29628435 -0.042843845
-0.21398003 -0.15490745 -0.21262546 0.22739358 0.1595147 0.2500788 -0.121262945 -0.087773725
-0.17051499 -0.2799419 0.016999213 0.44312957 -0.45403814 -0.19209546 -0.3553717 -0.19331293
0.08489931 0.22425362 0.6401777 -0.1480602 -0.30825117 0.041964434 0.15877008 -0.2011607
0.29828888 0.3352529 -0.21855256 0.037520707 -0.03770709 0.11318538 0.0018306194 -0.116822325
0.2627238 0.55501324 0.0325445 -0.03588669 0.13016728 -0.109393455 0.35372987 -0.42879182
-0.52347165 -0.12745191 -0.10180991 0.14332838 0.1275918 0.16630866 -0.15566272 -0.4074049
-0.30273914 -0.47374836 0.012847385 0.38904044 -0.10570524 0.04163906 0.20183678 0.021626962
0.010137336 0.1285824 0.15577988 0.27496225 -0.06324623 -0.17555857 -0.13607797 0.016340917
-0.008520062 -0.070929706 0.19818506 -0.369304 -0.035729423 0.080802314 0.33870295 -0.018049555
-0.27345228 0.02111804 0.11001733 0.30598032 0.09459192 0.08705746 0.22403733 -0.2327
0.064631656 -0.31590018 0.18078876 -0.023055186 0.33621716 -0.098021805 0.16778117 -0.17584021
-0.28672078 -0.1671264 0.109455206 -0.29693416 0.041133367 0.48741534 0.009250845 0.014806394
0.088466704 -0.17731272 0.49480185 -0.4409338 0.05150826 -0.18444696 -0.015307725 -0.16634251
-0.14979799 0.005487066 0.48457995 -0.2596873 -0.55088395 -0.19867076 0.44844437 0.37291265
0.5176662 -0.8411458 0.6369462 -0.13599227 -0.00937921 0.48173404 -0.16139053 0.423784
0.102308474 0.20248953 -0.023675846 0.14439532 -0.20238559 0.097483546 0.65188384 -0.03482525
0.29573154 0.3065714 0.030446671 -0.03375603 -0.3189539 0.016413465 -0.092098415 -0.07130527
-0.18504632 0.14428398 -0.089640394 0.025014803 -0.24398598 0.028417442 0.7862255 -0.10265721
-0.21434252 -0.055085983 0.15343836 -0.12035374 0.06202421 -0.03459179 -0.23662068 -0.08767248
-0.13319278 -0.2347834 0.17509323 -0.4647194 0.37062392 -0.6105562 -0.12233002 0.07419448
0.24418919 -0.027342282 -0.006860089 -0.1923323 -0.28305686 0.5376951 -0.17255132 -0.11964727
-0.17376272 -0.0045075133 -0.10798487 0.23898254 0.073076345 0.1473251 -0.17584206 -0.1878464
0.039659947 0.122145265 0.50987643 -0.16180006 -0.17814475 -0.21294728 0.4481241 0.023656558
00000000: 1e16 b4bd d9d7 c53e 41d3 983e 3a3e 81be
00000010: d5d0 4c3e 37f6 563e ab6f 00bd a5c7 4b3e
00000020: 0e54 4ebf 324e cebd 2125 2e3e 5dc0 43be
00000030: a3d7 8d3e 9b6e 8abe 4269 08be f01c a6bc
00000040: 8e8f 8cbd b659 a03e 73f8 a4bd fdf8 dc3e
00000050: 7f26 823e 1fc0 fa3e 3f4f 31bd f7de 503d
00000060: 6620 fe3c 364d f1bc 05ae 7b3e 07fd 303e
00000070: c245 053d f268 343e e36d 26bd 152d 9a3e
00000080: 17fc a33e 8342 763e 2b45 093e 2ff1 19be
00000090: 68e7 efbd c77c e7bd 6d0a 08bc af7b 69be
000000a0: a572 61be ff20 94be 0cbc 133d 7947 703e
000000b0: 321e b13e d07c 8abd 0ed7 303d ab75 89be
000000c0: c9c9 35bd 2443 a13e f9f5 adbe c912 4cbe
000000d0: e27e 02bf e756 58bd 3557 713e 8950 2e3d
000000e0: a8de bebe 0ebe f43e 619c 93be 63c3 3a3f
000000f0: e590 163e a89c 2b3d e3e3 a8be 30a8 643c
00000100: cf0d 72be cce9 b4bc c586 5bbf e495 f1be
00000110: b2fc a1bd 2cbb b1be 95b2 973e 077d 2fbd
00000120: 951d 5bbe 0fa0 1ebe 7dba 59be ddd9 683e
00000130: d257 233e 540a 803e b558 f8bd b6c2 b3bd
00000140: 7b9b 2ebe 8b54 8fbe ef41 8b3c e1e1 e23e
00000150: b077 e8be acb4 44be 48f3 b5be d3f3 45be
00000160: b0df ad3d bea2 653e b0e2 233f 189d 17be
00000170: 19d3 9dbe e6e2 2b3d a094 223e 12fd 4dbe
00000180: 52b9 983e 45a6 ab3e 3ecc 5fbe 50af 193d
00000190: c072 1abd bdcd e73d 65f1 ef3a 8b40 efbd
000001a0: bc83 863e 5915 0e3f 624d 053d ecfd 12bd
000001b0: 924a 053e ad09 e0bd 151c b53e 9a8a dbbe
000001c0: 3d02 06bf c182 02be b781 d0bd adc4 123e
000001d0: 6da7 023e d14c 2a3e 0c66 1fbe 6097 d0be
000001e0: a000 9bbe 258f f2be d77d 523c 4f30 c73e
000001f0: fd7b d8bd b88d 2a3d 4dae 4e3e 072b b13c
00000200: 1217 263c 1bab 033e c384 1f3e dac7 8c3e
00000210: 3d87 81bd a0c5 33be 0658 0bbe 63dd 853c
00000220: bb97 0bbc 9843 91bd 06f1 4a3e 6a15 bdbe
00000230: 0459 12bd af7b a53d 796a ad3e a9dc 93bc
00000240: f001 8cbe bdff ac3c c450 e13d 74a9 9c3e
00000250: 69b9 c13d 2e4b b23d 0b6a 653e e948 6ebe
00000260: 9a5d 843d abbd a1be b020 393e 3bde bcbc
00000270: a824 ac3e a8bf c8bd d4ce 2b3e 750f 34be
00000280: 11cd 92be 2f23 2bbe 0d2a e03d c107 98be
00000290: 767b 283d 818e f93e db90 173c 8596 723c
000002a0: 082e b53d 7791 35be ab56 fd3e 13c2 e1be
000002b0: 53fa 523d aadf 3cbe 41cd 7abc b155 2abe
000002c0: a564 19be d9cc b33b dd1a f83e bcf5 84be
000002d0: bb06 0dbf 5970 4bbe 809a e53e 68ee be3e
000002e0: c685 043f 5555 57bf e80e 233f 8f41 0bbe
000002f0: 42ab 19bc d8a5 f63e 8f43 25be 37fa d83e
00000300: 1b87 d13d 6a59 4f3e d9f3 c1bc 5edc 133e
00000310: 2b3e 4fbe 74a5 c73d dce1 263f eca4 0ebd
00000320: 206a 973e edf6 9c3e 4c6b f93c c343 0abd
00000330: ed4d a3be 8875 863c 189e bcbd 7f08 92bd
00000340: c87c 3dbe 2ebf 133e 6295 b7bd d8eb cc3c
00000350: 76d7 79be b2cb e83c 1346 493f f13d d2bd
00000360: 9b7c 5bbe d7a1 61bd f21e 1d3e 067c f6bd
00000370: 190d 7e3d 1fb0 0dbd b14c 72be a18d b3bd
00000380: b063 08be 0f6b 70be a44b 333e b4ef edbe
00000390: 6bc2 bd3e 694d 1cbf 2988 fabd 47f3 973d
000003a0: bb0c 7a3e ecfc dfbc 99ca e0bb c2f2 44be
000003b0: d4ec 90be 63a6 093f 4bb1 30be a109 f5bd
000003c0: dbee 31be c3b3 93bb 2c27 ddbd d7b7 743e
000003d0: 0da9 953d 64dc 163e f10f 34be cf5a 40be
000003e0: 7872 223d 4c27 fa3d 4387 023f eaae 25be
000003f0: 946b 36be da0e 5abe 8670 e53e 66cb c13c
